encoder_contrastive.pth (torch, 105541 bytes, 10 tensors)

atom_embed.weight f4 [7, 64]
000000 9f 12 93 3f 21 31 e0 bd c7 91 75 3f 22 50 8e 3e
       1.1490058 -0.109468706 0.95925564 0.2779551
000010 11 03 10 bf 60 8d 97 bf ef 0e ce be 79 d4 a1 be
       -0.5625468 -1.1840019 -0.40245768 -0.31607416
000020 d0 e4 13 40 84 81 bf bf 7c a3 12 bf 84 64 3b 3f
       2.3108406 -1.49614 -0.5728071 0.7320025
000030 37 3b 5e 3f 54 6f 05 c0 e6 02 45 3f 74 bf 9f 3f
       0.86809105 -2.08492 0.7695755 1.2480302
000040 86 1e 05 bf a5 49 93 bf 34 32 9c 3f d6 d1 a3 3f
       -0.519997 -1.150685 1.2202821 1.2798412
000050 29 b8 77 be b8 2c 0f be e0 dc 7d 3e 12 8e 81 3e
       -0.24191345 -0.13981903 0.24791288 0.25303704
000060 d7 20 9e bf b6 44 86 3f f5 59 c9 3d 38 30 bd 3d
       -1.2353772 1.0489719 0.09831611 0.092377126
000070 95 ec 8e 3f 16 26 aa 3f a6 c0 0f 3f 6a db 53 bf
       1.1165949 1.3292873 0.56153333 -0.82756674
000080 f2 72 24 bf b7 df 01 c0 2a 6f cf be 3a 9d 18 be
       -0.6423789 -2.0292795 -0.405145 -0.14903727
000090 5b d3 f5 be d9 5a fc 3f b5 5e 7a 3f b0 8d 2a be
       -0.48012814 1.9715225 0.9780076 -0.16655612
0000a0 15 0e 47 bf 79 e5 1b 3f 2b 8f 50 be cd de 34 be
       -0.7775586 0.6089702 -0.20367114 -0.17663117
0000b0 bc 3c 96 3f 1e 06 e4 3f 01 e8 64 3f 3f ac 19 3f
       1.1737285 1.7814367 0.8941651 0.6002845
0000c0 a1 8d 6a bf c2 9b 81 bf c7 6a df 3e 63 6d f1 be
       -0.9162236 -1.0125659 0.43636152 -0.47153768
0000d0 8d f1 b9 be e1 d7 4e bf 3a e2 14 be a8 9f 1f 3e
       -0.363171 -0.80798155 -0.14539424 0.15588248
0000e0 cd db 91 bf 4a f6 b4 3f 61 7e 14 3f a8 b8 32 be
       -1.1395203 1.4137661 0.5800534 -0.17453253
0000f0 28 69 33 bf ef 8d 87 bf b0 f3 05 40 62 a3 53 be
       -0.7008233 -1.059019 2.0929985 -0.20667794
000100 b8 56 86 3f c2 50 7d be eb e2 3a bf 19 d9 92 bf
       1.0495214 -0.24737838 -0.730025 -1.1472503
000110 d9 83 19 3e 54 26 fb be 17 34 62 bf 9a c0 96 bd
       0.14991702 -0.4905268 -0.8836073 -0.073609546
000120 dd ce 8b be 99 6a c3 3f 7b 83 da 3c 6d 79 90 bd
       -0.27306262 1.5266906 0.026674023 -0.0705441
000130 2b 11 92 be e2 e8 5b 3c 1c f7 99 3e 98 20 b9 3e
       -0.28528723 0.013422223 0.30071342 0.3615768
000140 3d 9c 55 3f 77 7e 0c be 4c bf 8d bf c4 cc 65 3f
       0.83441526 -0.13720118 -1.1074004 0.8976557
000150 c3 cd 2f 3f 66 64 84 3f b4 36 d2 3e 53 5d 90 3e
       0.6867334 1.0343139 0.4105736 0.281962
000160 d5 91 38 3d 5c ff fd 3e 8d 03 82 3f e6 7d 10 3f
       0.04506095 0.49608886 1.0157334 0.56442106
000170 c5 f1 ae 3f e6 27 39 3e 18 d9 9c 3f 34 fa 48 bf
       1.3667532 0.18081626 1.2253752 -0.7850678
000180 8f b9 8e 3f 6e 07 8e be 08 1c 08 bf 7d d5 83 3f
       1.1150378 -0.27740043 -0.5316777 1.0299526
000190 3f da c8 3e 94 ea ab 3e c7 47 5c bf ca a5 92 3f
       0.3922901 0.33577406 -0.86047024 1.1456845
0001a0 f9 eb 82 bd 53 c6 a1 bf 4f a5 2a bf 9d 88 7c bf
       -0.063926645 -1.2638649 -0.6665849 -0.98645955
0001b0 c7 2c ff 3f 51 be 50 3d 97 db 9a bb 02 31 d9 be
       1.993554 0.05096275 -0.004725884 -0.42420202
0001c0 7a a5 87 bf be 70 11 3f 91 5f 67 3f 45 ec 63 bf
       -1.0597374 0.56812656 0.903802 -0.89032394
0001d0 45 86 b7 bf ed 0b a3 bf ad e2 fd be 02 0e 24 3f
       -1.4337851 -1.2738014 -0.49587002 0.64083874
0001e0 80 e1 dc 3f 75 e9 cb be 6b 87 82 3f 3b f7 42 3f
       1.7256317 -0.3982655 1.0197576 0.76158494
0001f0 73 b8 37 bf 64 48 72 bf ba 74 97 bf 4f 11 39 3f
       -0.7176582 -0.9464171 -1.1832497 0.72292036
000200 7c fd 82 3f 31 03 0a c0 96 20 80 3f 27 1a c9 be
       1.0233607 -2.1564448 1.0009944 -0.39277765
000210 a8 61 be 3e 92 3e 10 be 9a 21 ef 3e 7d 03 8a be
       0.3718388 -0.14086369 0.46705323 -0.26955786
000220 47 ce 55 3f 39 ba 9c 3f 12 f7 a6 3f 83 48 fa 3d
       0.8351788 1.2244331 1.304415 0.12220862
000230 63 09 04 3f 26 eb 56 bf b8 d7 b7 bd 5b 5f fa bc
       0.51576823 -0.8395256 -0.08976692 -0.030563047
000240 62 d3 d4 be c4 9f a4 3f 82 38 d8 3e f2 12 9d 3f
       -0.41567522 1.2861257 0.42230612 1.2271407
000250 f9 ab 33 3f b3 e8 8a be e4 f0 03 c0 04 28 35 bf
       0.70184284 -0.2713066 -2.0615778 -0.70764184
000260 c9 00 48 3d 9e 13 7a be 53 22 22 bd e2 b7 f7 39
       0.048828874 -0.24421546 -0.039583515 0.00047248515
000270 9c 5d 47 bf f0 ec bd be 8a f7 e3 3f e5 19 c1 3e
       -0.7787721 -0.3709483 1.7809918 0.37715068
000280 ac 84 84 bf 4d d7 b7 3f c0 d6 c2 3e 08 23 8f be
       -1.0352988 1.436258 0.38054466 -0.27956414
000290 15 ce 9d 3f ee 76 02 be e2 21 1e 3f a0 7a 4f 3f
       1.2328516 -0.1274068 0.6177045 0.81046486
0002a0 87 94 0c be fd 98 4b 3e 77 3b 88 be b1 f4 11 3d
       -0.13728534 0.19882579 -0.26607868 0.035633747
0002b0 e9 10 86 3f e0 ef 4d be 7d 6d 64 3f 13 de a7 bf
       1.047391 -0.20111036 0.89229566 -1.3114647
0002c0 70 b0 ab 3f 08 e6 98 be 87 ed 8a bf 51 22 b4 3f
       1.341322 -0.29863 -1.0853738 1.4072973
0002d0 5d dc 98 3e 64 4f 97 3f 43 82 92 3e 6d 8d 58 bf
       0.29855624 1.1821103 0.28615007 -0.845908
0002e0 52 8d 07 40 3b 35 30 3f 4d 20 3c 3f eb 3a df 3f
       2.1180005 0.68831223 0.7348679 1.7439855
0002f0 38 e9 60 3f b9 de 83 bf a8 b4 1f 3f b9 e1 0d bd
       0.87855864 -1.0302345 0.62385035 -0.034639094
000300 d8 31 98 be 5d b3 0a 3f 85 55 9d 3f c0 1e 03 c0
       -0.29725528 0.54179937 1.2291723 -2.0487518
000310 05 d4 33 3f a9 7c af 3f b9 e3 08 3e ce a4 07 40
       0.7024539 1.3709918 0.1336812 2.1194339
000320 e5 11 e1 be 6c 49 32 be cd 04 6e 3d 78 22 ec 3d
       -0.43958965 -0.1741082 0.058110047 0.11530012
000330 84 34 56 bf 1f e0 f1 be 7b f6 a2 bf 57 d5 11 c0
       -0.8367388 -0.47241303 -1.273147 -2.2786462
000340 6b b8 db bf f5 29 e2 bb ee d0 e2 3f 37 09 e4 3e
       -1.7165655 -0.0069019743 1.772001 0.4453828
000350 f7 ca 77 3f d6 e2 72 3f 39 56 fe bd c2 d8 c4 3e
       0.96794075 0.94877374 -0.124187894 0.38446623
000360 a5 e8 67 bf 3a 35 c9 3f 7d 5a ea be 19 4c 26 bf
       -0.9058936 1.5719368 -0.45772162 -0.64959866
000370 76 90 85 bf 13 b9 89 bf 13 de 22 c0 b8 5c b4 bf
       -1.0434711 -1.0759605 -2.5448043 -1.4090796
000380 f8 ae b5 3f d5 b7 d3 bf 6e 86 57 bf a4 ce 8d bf
       1.4194021 -1.6540476 -0.841895 -1.1078687
000390 48 17 ee be 2f 1a 79 3e d0 fd 14 3f af ec aa 3f
       -0.46502137 0.24326394 0.5819979 1.335348
0003a0 56 98 c3 3f 3b c7 59 3f 78 d0 76 3f 74 1e 06 bf
       1.5280864 0.85069627 0.9641185 -0.5239022
0003b0 b8 b3 39 bd 2a 92 46 3f bc 56 48 3f 45 29 85 3f
       -0.04533741 0.7756678 0.78257346 1.040322
0003c0 64 85 07 3f 5e 06 ae 3e d5 cb c7 bf d4 0d 8c 3f
       0.5293791 0.33989233 -1.560908 1.094172
0003d0 3f d3 cb be 88 02 72 bf 71 46 e8 bc 11 66 d5 3f
       -0.39809605 -0.9453511 -0.028353902 1.6671773
0003e0 19 f6 77 3f 67 99 95 be b2 ff eb 3e 41 ce a0 bf
       0.9685989 -0.292186 0.46093518 -1.2562944
0003f0 9c 40 10 3f 48 29 e0 bc 52 85 43 3e f8 8c 03 c0
       0.56348586 -0.027363434 0.19093826 -2.055479

convs.0.lin_l.weight f4 [64, 64]
000000 0c 9b a9 bc f9 37 99 3d 73 00 c5 bd d2 8c 88 bd
       -0.020703815 0.07481379 -0.09619226 -0.06667484
000010 2f d4 84 3d f5 2f 84 bd 0e c2 45 3d 6e 1a bb 3d
       0.06485783 -0.064544596 0.048280768 0.091359004
000020 cb b3 b7 3d 81 5d b4 bc d9 6d bf 3c 6a f1 ab 3d
       0.0896984 -0.022017242 0.02336781 0.083956555
000030 3c 66 bb 3d 54 a5 97 bd 35 4e c1 bd 33 3b 1a 3d
       0.09150359 -0.07404581 -0.09438745 0.037654113
000040 f6 e5 db 3c ab ed df bd e5 f4 d2 3d 11 5a f2 bc
       0.026843052 -0.109340034 0.10300616 -0.029583963
000050 81 ad ac 3d e9 c1 f2 3c a9 66 b7 3d 0d db 01 be
       0.08431531 0.02963348 0.08955128 -0.12681217
000060 8e d8 ce bc 5e 4c af bc 2b d8 10 be 45 77 6b bb
       -0.025249746 -0.02139872 -0.14144962 -0.0035929244
000070 42 73 07 bd a7 2f 7c 3d ab 3d 8b 3d 0f f9 9e 3d
       -0.033068903 0.061568882 0.067988716 0.07762348
000080 d8 73 84 3d 86 bf cb bc a6 73 9e 3d 6e ce 0c 3d
       0.06467408 -0.024871599 0.07736902 0.034376554
000090 9c 86 8a bc 70 f5 b1 3d 11 1a 79 bd f6 d6 d2 bd
       -0.01690989 0.086893916 -0.060815874 -0.10294907
0000a0 83 99 bd 3d de ef 96 bd 06 90 90 3a 60 64 95 3d
       0.09257796 -0.0736997 0.001102925 0.07294536
0000b0 e4 a6 fa bd 4b 1c c5 bc fb 39 f1 3a 03 78 4d 3c
       -0.12238863 -0.024061343 0.001840412 0.01254082
0000c0 83 8b cd bd 7d 4a b6 bd a7 f8 b9 bd 7a 20 04 3e
       -0.100363754 -0.08900926 -0.0908063 0.12903014
0000d0 71 7b 9c 3d 3a a5 b4 bd b3 8d a8 bd e2 91 46 3d
       0.07640732 -0.08820577 -0.08230152 0.04847897
0000e0 1a 7d b4 3d e1 4f 20 bd f5 1d 16 bc 19 91 99 bd
       0.08812924 -0.03913868 -0.009162416 -0.07498378
0000f0 b5 22 64 3c b2 ca dc 3d 3c 39 cc bd f1 66 0f 3d
       0.01392429 0.107808486 -0.09971854 0.035010282
000100 bd a1 92 3d b2 f3 b8 3d 1a b8 b0 bd 0a 72 42 3d
       0.071597554 0.09030856 -0.086288646 0.047472037
000110 73 d5 4e 3d 86 0d 1a bd 7a ed d0 bd e1 1c fb bd
       0.05049653 -0.037610553 -0.10201545 -0.122613676
000120 13 27 f2 bd a9 78 83 3d 07 ce c9 3d 11 09 0d bd
       -0.11823859 0.064194985 0.0985375 -0.034432475
000130 68 1a 9d 3d 56 bd 07 bc 4e c1 6e 3d ed 4e c7 bd
       0.07671052 -0.008284887 0.05828982 -0.09731851
000140 47 ad 31 3e 6a 5c f2 3d 64 d4 5a bd aa 43 3d 3d
       0.17351256 0.11834033 -0.053425208 0.046207108
000150 91 ff 2f 3d 6b d2 6c bd 4d a2 4f bd 13 b4 f6 3d
       0.042968336 -0.057817858 -0.05069189 0.12046065
000160 f6 dc 01 3e 6d e3 d3 3d bd 5e b0 3d a1 e9 6f bd
       0.12681946 0.103461124 0.0861182 -0.058572415
000170 e5 70 d9 bd fe 46 5a 3d 62 f5 40 bd 56 e4 8a bd
       -0.10617236 0.05329036 -0.047109015 -0.06781833
000180 63 b2 95 3d 72 8e c8 bd 19 54 1f bd 15 1e 28 bd
       0.07309415 -0.09792794 -0.03889856 -0.041044313
000190 11 70 ff 3d 05 1a cd 3c b7 8d 0d be 24 fb 3c 3d
       0.12472547 0.025036821 -0.13823591 0.046137944
0001a0 3a e9 e3 bd 61 14 39 be 0b 83 46 bd af 6c 95 bc
       -0.11128469 -0.1807418 -0.048464816 -0.018240301
0001b0 63 a5 b0 3d 9b 14 b1 3d 00 e0 9d 3c 13 bb 59 bd
       0.08625295 0.08646508 0.01927185 -0.053156924
0001c0 34 22 55 3d da 73 f9 3d ff fe f5 3d a1 a2 49 bd
       0.05203457 0.121803 0.12011527 -0.04922736
0001d0 fb 52 89 bd 34 5d a3 bd 2a ae 02 be f2 ac c4 3d
       -0.067052804 -0.079767615 -0.12761751 0.09603299
0001e0 a2 df dc 3d 97 15 0b bd 19 ed 08 bb 17 90 43 3e
       0.10784842 -0.033956137 -0.0020893274 0.19097935
0001f0 59 ab a8 bd 84 52 15 3d e6 aa e0 bd 6f 88 0b bd
       -0.08235807 0.036455646 -0.10970096 -0.03406566
000200 7b 96 a3 3d 35 3d 80 3d 84 30 82 bc eb 84 ba 3d
       0.07987686 0.06261674 -0.015892275 0.09107383
000210 0e bd 18 bd 7d ad 25 bc 0e 8c 0a bd 1a 29 5e bd
       -0.03728967 -0.010112164 -0.033824973 -0.054238416
000220 82 38 51 3d a8 22 60 be f7 21 33 3d 5b 74 46 bc
       0.05107928 -0.2188822 0.043733563 -0.012112702
000230 3c 4c 84 bc e2 6c f2 bd e0 8b cb 3d 9a 15 97 3d
       -0.016149633 -0.11837174 0.099387884 0.07377167
000240 20 7d 96 3a 2f 10 d9 bb 1f 0d 8c 3d 5a fd 04 3e
       0.0011481382 -0.0066242437 0.0683844 0.12987271
000250 98 a9 36 be 09 ce fc bd 1b f0 23 3e d3 f1 20 3d
       -0.17838132 -0.123439856 0.16009562 0.03929312
000260 ee c5 24 3d 87 b7 57 bd b1 04 f3 bd 37 73 92 bb
       0.040227823 -0.05266526 -0.11866129 -0.004469301
000270 c4 35 c8 bc ed cd ca 3c 79 dc c2 3b 3d 5c a6 bd
       -0.0244397 0.024756396 0.0059466925 -0.08123062
000280 b3 8d c2 be 79 2c 8e 3d 5c 8b e6 bc 8f 5d 72 3d
       -0.37998733 0.06942076 -0.028142624 0.059171256
000290 15 4d b3 bd d6 01 86 bc 93 1c 11 3e e9 ea be bd
       -0.087549366 -0.016358297 0.14171056 -0.09322149
0002a0 04 22 4c 3d 07 e6 c2 3e 30 d7 72 3d 3a 03 ea 3c
       0.049837127 0.38066122 0.05928725 0.028565992
0002b0 c2 8b 73 3c 59 cd a0 3d 79 d7 c0 3d da 95 2a 3d
       0.014864864 0.07851667 0.09416098 0.041646816
0002c0 86 b9 92 3d 7a 3f b9 bd 5c b8 a3 bd c1 de 7c bd
       0.07164292 -0.0904531 -0.07994148 -0.061735872
0002d0 43 4a 06 3e 4f d8 13 3d 36 52 d0 bd f8 14 c3 bd
       0.13114266 0.03609496 -0.101719305 -0.09525484
0002e0 7b 3a 02 bf 8e 6b 70 bd bd 2d 2b 3d 5e ab 53 be
       -0.50870484 -0.058696322 0.041791666 -0.2067084
0002f0 51 97 f2 bd cc 4e 06 3d e1 33 04 3e 96 1b 41 bd
       -0.118452676 0.03278999 0.12910415 -0.04714545
000300 99 37 bb 3d 52 4c 99 3d d0 78 e9 bc dd ba 41 bd
       0.09141464 0.0748526 -0.02849999 -0.047297347
000310 aa 2c 13 be 17 9f 5e bd dd 39 2e 3d 31 0c 07 bd
       -0.14372507 -0.05435094 0.04253565 -0.03297061
000320 79 df bf bc 3f 3d 10 bb ec 66 5f bd 2f ae 2d bd
       -0.02342199 -0.0022009162 -0.054541513 -0.042402443
000330 cb 0d 8b bd 6d 18 ff 3c bc 30 a2 bd 5c a0 ab bd
       -0.0678974 0.031139577 -0.079194516 -0.083801955
000340 52 50 e7 bd 37 79 07 be 69 ab 06 bd 63 3b be 3c
       -0.11294617 -0.13229834 -0.032878313 0.023221677
000350 5d e0 0f be 14 f1 ad bd 45 95 88 bd 30 b2 22 3d
       -0.14050432 -0.08493248 -0.06669096 0.039720714
000360 e1 fb 66 bd 15 1b 39 bc b0 b3 d4 3d 4e 1b 85 3c
       -0.056392554 -0.011297961 0.10385835 0.016248371
000370 5f 2a 41 bd 5d bc 37 3d b8 86 d0 bc db 9e b9 bd
       -0.04715955 0.04485737 -0.025454864 -0.090635024
000380 10 00 34 be a4 95 c4 3d 13 9e ba bd 8b 71 e8 3b
       -0.17578149 0.09598854 -0.091121815 0.0070936135
000390 b2 5a a9 3d 07 08 cb bd 64 b8 69 3d 97 02 82 bd
       0.08269252 -0.099136405 0.057060614 -0.0634815
0003a0 94 ef cc 3d 71 d8 fa 3d d4 d6 d6 3c 53 73 e5 3d
       0.100066334 0.12248314 0.026225485 0.11203637
0003b0 0c 6f c7 bd 47 59 0b 3e 95 d5 eb 3c 58 37 1d 3e
       -0.097379774 0.13608275 0.028788367 0.15353143
0003c0 01 60 48 3d 32 b7 d0 bd 30 c7 08 3e 4c 98 c0 3c
       0.04891968 -0.10191192 0.13357234 0.02351012
0003d0 8d fb cf bd 9e 83 91 bd be c4 a3 3a a8 2c 95 bd
       -0.101554014 -0.07105182 0.0012494547 -0.07283908
0003e0 b9 4d 03 be 60 f3 11 bc ff a9 45 bd 26 1b 97 bd
       -0.12822618 -0.008908123 -0.048257824 -0.07378225
0003f0 ca c3 87 bd ec 27 95 3d 79 c0 04 3e 91 2c 9e bd
       -0.06629141 0.07283005 0.12964047 -0.07723344

convs.0.lin_l.bias f4 [64]
000000 5d cc de bd cc 89 c8 3c 3e 12 dd bd 0f 49 ed 3d
       -0.10878823 0.02447977 -0.10794495 0.115862004
000010 6c c8 86 3d 08 05 92 3d 87 17 f7 bd 0a a6 b4 bd
       0.06581196 0.07129866 -0.12065034 -0.08820732
000020 32 49 bd bd 11 0a 63 bc c3 88 e1 3d 2f 58 88 bd
       -0.092424765 -0.0138573805 0.11012413 -0.06657445
000030 fb 73 00 be 10 52 d6 3c e2 20 f2 3d 19 ee 87 bd
       -0.12544243 0.026162177 0.11822678 -0.066372104
000040 78 1f eb bd a6 37 67 bd d1 5f b3 bd 48 65 bc 3d
       -0.114806116 -0.056449555 -0.0875851 0.09199005
000050 e4 ce 57 3d d2 a4 93 bd fe 20 9d bd 54 f0 a7 bd
       0.05268754 -0.07209171 -0.076723084 -0.08200136
000060 77 06 1c 3d 28 92 bb 3b af a3 00 3e 6e 31 a2 bd
       0.038092103 0.0057242103 0.1256244 -0.07919584
000070 82 8d 0d 3c cb 21 00 3c 8b df e2 3d 00 3c 01 be
       0.008639695 0.007820557 0.11077794 -0.12620544
000080 f1 03 ee 3d 6c 8f ab 3d 81 63 5a 3d 43 c2 ee 3d
       0.116218455 0.08376965 0.05331755 0.11658146
000090 17 4e 03 bd 35 fa a5 3d e6 c2 85 3d 84 4f 75 bd
       -0.032056894 0.08104364 0.065313146 -0.059890285
0000a0 8c 0a 76 3d 68 68 fa bc 47 12 c3 bc c4 21 b2 3b
       0.060068652 -0.030567363 -0.023812426 0.005436154
0000b0 3f 9b 3e bd c9 2d 6b bd 5b 81 48 3d 0c c8 ae bb
       -0.046534773 -0.05741671 0.048951488 -0.005333906
0000c0 a4 8e 24 3d 18 b4 c0 bd bd 93 86 bd b5 e6 24 bd
       0.040175095 -0.0940935 -0.065711476 -0.040259082
0000d0 60 db d6 3d 27 1b f2 bd 0f 08 f7 bd 08 74 ae 3d
       0.10491061 -0.11821585 -0.12062084 0.08518225
0000e0 ac 24 0f 3d 7d 18 ec bc d7 3d 85 3d b1 41 4d bd
       0.034947082 -0.02882027 0.06505936 -0.050111476
0000f0 6b 6c de bd 7c 9e 8f 3d ac 0d 69 3d 8a 08 4c 3d
       -0.10860523 0.0701265 0.056897804 0.04981283

convs.0.lin_r.weight f4 [64, 64]
000000 e6 2a a6 bd ed 08 9f bd 48 94 8c 3d c6 22 36 bd
       -0.08113651 -0.07765374 0.0686422 -0.044466756
000010 5d 49 d8 ba 1d d1 d1 3d 97 87 8f bb d5 39 05 bd
       -0.0016501356 0.10244963 -0.0043801772 -0.032525856
000020 7e e7 41 bd dc 81 da 3d 21 2e 92 bd 8b 0f dc 3b
       -0.04733991 0.106693 -0.07137705 0.00671572
000030 31 ee 59 bc 2f ec b3 3d 84 74 cd 3d 6e 97 40 bc
       -0.013301418 0.08785283 0.10031989 -0.011754854
000040 c3 aa d2 3c 56 a8 7f bc e6 51 6d 3d 2c 93 b4 3c
       0.025716191 -0.015604099 0.057939433 0.022042833
000050 9a 4a d3 3d 62 ae f3 bd c7 79 b0 bd 7d 92 3b bd
       0.103169635 -0.11898495 -0.08616977 -0.045794
000060 dd 85 57 3c 4b a9 8a 3d eb 2f 52 3d 54 62 19 bc
       0.013154474 0.06770571 0.05131523 -0.009361822
000070 92 67 e0 3d bd b8 d0 3d 3f 50 e8 bd c1 ad f4 3d
       0.109572545 0.10191486 -0.11343431 0.119472034
000080 bd 2f 59 3d 04 49 04 3e 21 28 44 bc 97 5f 3b 3c
       0.053024042 0.12918478 -0.011972458 0.011436365
000090 40 3b 88 3c bc f1 e9 bd c7 10 28 3d 38 ee c2 bd
       0.016629815 -0.1142306 0.041031625 -0.09518093
0000a0 c8 b0 a6 bd 6c 48 ca 3d a1 85 47 bd 43 47 76 3d
       -0.08139187 0.098770946 -0.048711423 0.060126554
0000b0 c7 80 a6 bd 73 9c e1 bc d2 9a 20 3d a2 fa e8 bc
       -0.08130031 -0.027540421 0.03921015 -0.028439824
0000c0 9f e6 91 bd 87 46 88 bd b2 c3 23 3c a1 db 8b bd
       -0.071240656 -0.06654077 0.009995388 -0.06829
0000d0 e5 d9 b2 3d f5 f7 c7 bd 00 ad 81 bd 19 02 c8 3d
       0.08732966 -0.09764091 -0.06331825 0.09766025
0000e0 04 e4 c1 3d a6 c7 6b 3c 92 61 81 bd 64 c0 d3 bd
       0.09467319 0.014390862 -0.06317438 -0.1033943
0000f0 82 d3 77 bd 8a f5 b2 bc 54 07 d3 3d 2c 94 a0 bd
       -0.060504444 -0.021845598 0.10304132 -0.078407615
000100 96 f3 92 3b f4 e4 35 3d 08 e6 a0 3d c8 7d 53 3d
       0.004484604 0.0444078 0.07856375 0.051633626
000110 ea c8 1e bc d5 96 e6 3c 3d 69 b0 bd 5a a4 2d 3d
       -0.009691456 0.028148094 -0.086138226 0.042393066
000120 f2 f6 b5 3c 09 ff a7 bd 3f e1 85 bc fb 9f 68 bd
       0.02221248 -0.08202941 -0.016342757 -0.056793194
000130 1f 75 96 bd 15 11 1a 3d bc b2 a9 bd 45 6f af 3c
       -0.07346558 0.037613947 -0.08286044 0.021415362
000140 85 3e 76 3d 54 ec 33 3d 7c 37 7e 3c e1 fd 7a bd
       0.060118217 0.043926552 0.015516158 -0.061277274
000150 44 9f 8b 3d a5 55 90 3d 34 89 9d bd 61 db 3a bd
       0.06817487 0.070475854 -0.07692185 -0.045619372
000160 6e 4a ca 3c da eb 3b bd 56 53 ba bc 1b 71 e3 bd
       0.024693694 -0.045879222 -0.022744816 -0.111055575
000170 f7 69 ea 3d ca 2a e2 bd 86 9f 8c 3c 9e 62 35 bd
       0.114459924 -0.110433176 0.01716591 -0.0442835
000180 76 17 b7 3d c1 b6 98 3c 2e 14 38 3d 71 20 c4 bd
       0.08940022 0.018641831 0.04494112 -0.095765
000190 81 39 b9 3d 35 a9 f8 3d 18 dc 99 bd 47 03 5a bc
       0.09044171 0.12141649 -0.07512683 -0.013306445
0001a0 bf 20 9a 3d 54 7a b2 3d dc c7 d9 3c 51 dc c7 bd
       0.07525777 0.087147385 0.026584558 -0.09758819
0001b0 19 8a e8 bd f9 5d fb bd 62 6a 1e 3d 5b 61 05 be
       -0.11354465 -0.12273783 0.038675673 -0.1302542
0001c0 6d 7d 2c bd 18 40 bc 3d c6 3f 5d bc 85 f0 94 bc
       -0.042111803 0.091919124 -0.013503974 -0.018181095
0001d0 b5 bd bb 3d c9 45 cf 3b c8 f1 98 bd fc fd b6 3c
       0.09167043 0.0063254577 -0.07467991 0.022337906
0001e0 a3 2e bc 3a 90 7f 81 3d 43 99 a3 3d 1d 8d e5 3d
       0.001435716 0.06323159 0.07988217 0.11208556
0001f0 38 5c 1e bc ce c2 a3 bc 01 09 e5 bd 97 07 a1 3d
       -0.009665541 -0.019990351 -0.11183358 0.07862776
000200 45 78 d8 3c 99 92 29 3d 22 bf 23 3c f1 55 20 bd
       0.026424536 0.041399572 0.0099943 -0.03914446
000210 ff f0 0b 3e 3e 56 ce 3d 4a 17 b0 3d 21 54 d6 3d
       0.13666151 0.10075043 0.08598192 0.10465265
000220 bb fe 78 bd fd f2 ae bd df bf a6 bd 35 4f d5 3d
       -0.060789805 -0.0854244 -0.08142065 0.10415498
000230 a5 ab 87 bd 3f 1b f3 bc 4a 0a 35 3d 28 6a 23 be
       -0.066245355 -0.029676078 0.044199266 -0.15958464
000240 9d 47 3a 3c 0b 53 d9 bd bf 75 8c bd 2f a4 7f bd
       0.011369613 -0.10611542 -0.06858396 -0.062412437
000250 87 1b 59 3d c1 0f 91 bd cb 5c 36 3d 69 5d cf bd
       0.053004768 -0.07083083 0.044522088 -0.101252384
000260 90 d6 09 be c3 51 01 3d 08 22 9a bd 29 b0 de bd
       -0.13460755 0.031572115 -0.07526022 -0.10873444
000270 1b 94 a4 39 b2 1b 14 be 79 6a 33 bd 1a de 69 bd
       0.00031390865 -0.1446369 -0.043802712 -0.05709658
000280 a4 9f a0 bd 21 22 5e bc 2d ed cb 3d 96 6f 6b bd
       -0.07842949 -0.013557942 0.09957347 -0.057479464
000290 31 42 93 bd 47 1a cd 3c 5b 1c 2d bc 3e 4f e1 3d
       -0.071903594 0.025036944 -0.0105658425 0.110014424
0002a0 2a 67 9a 3d e9 6e a7 3c 4e 6c 1e 3e 51 00 04 3c
       0.07539208 0.020438628 0.15471002 0.008056716
0002b0 b0 b1 c1 3d d3 44 a7 bd 5b 3b d0 bd f4 fc 86 bd
       0.09457719 -0.08167424 -0.10167571 -0.06591216
0002c0 e8 45 02 3e 3c 23 d1 3d c0 0f 87 bd 6c 2e 9d 3d
       0.1272198 0.102117985 -0.06594801 0.0767487
0002d0 09 a4 cd 3d a3 7e bd bd 61 ad ed bc 33 74 35 3d
       0.10041053 -0.0925267 -0.029013338 0.04430027
0002e0 b3 6f 00 3e a5 83 6f 3d 2a 57 d8 3d 87 ea b5 bd
       0.1254261 0.058475155 0.105635 -0.08882623
0002f0 74 dc d1 3a 1e 72 81 3c da a4 f6 3d c6 95 5f bd
       0.0016011135 0.015801486 0.12043162 -0.054586194
000300 09 1e cf bd 1e 5b 69 bd 26 d9 9f bd 98 00 35 bd
       -0.101131506 -0.05697166 -0.0780509 -0.04419002
000310 db d3 d4 3c 69 ee fb 3c dd f0 00 bd b5 57 ab bc
       0.025979927 0.030753331 -0.031479705 -0.020915845
000320 ec d7 99 bc 88 2b 87 bc fc 5f dc 3c 92 90 85 bd
       -0.018779717 -0.01650025 0.026901238 -0.06521715
000330 db b7 89 bd cf 8c 1d 3d 2b 8f 83 bd 3f 0b aa bd
       -0.06724521 0.038464364 -0.064237915 -0.08302926
000340 eb db 80 bd cc b0 50 3d 9a f5 59 bd c0 e5 fc 3d
       -0.06291946 0.050949857 -0.05321274 0.12348509
000350 0c 2f 03 3e 3f 2c b3 bd 05 ec 45 3d 4f 79 6a bd
       0.12810916 -0.08748674 0.04832079 -0.057244595
000360 0b 38 32 bc 24 e5 ec bd c7 51 32 3d 52 8a e0 bd
       -0.0108776195 -0.115671426 0.04353502 -0.109638825
000370 f9 82 d0 3d b8 33 de bd 00 ab e5 3b 31 0b a0 3d
       0.10181231 -0.10849708 0.00700891 0.078146346
000380 0c 29 b0 3d ee 56 fd bd 89 c8 a1 bd ab ed 02 be
       0.08601579 -0.12370096 -0.07899577 -0.12785976
000390 cd 36 c5 bc 98 85 ab 3d 08 27 c3 3d d5 68 b2 bd
       -0.024073983 0.0837509 0.09528929 -0.087114014
0003a0 10 7a 00 3e 1c 32 f8 3c 44 43 c2 bd 5a 89 6f 3d
       0.12546563 0.030297332 -0.09485486 0.058480598
0003b0 c4 78 3a 3c a8 a5 99 bd f3 3d 4d bc a9 a3 cd bd
       0.011381332 -0.075022995 -0.012526977 -0.10040981
0003c0 1c f6 bd 3d f8 8f 09 3b e8 0d b6 bd 06 0f 0c 3e
       0.09275457 0.0020990353 -0.08889371 0.13677606
0003d0 bd a7 42 bd 52 29 d1 3d 0e 3f 85 3d af 61 cd bd
       -0.04752325 0.10212959 0.06506167 -0.10028397
0003e0 18 95 29 3d f3 f6 93 bd 79 92 b4 bd 8c 2c c2 bd
       0.041401953 -0.07224836 -0.08817 -0.09481153
0003f0 2f dc 8e 3d 6b c1 a7 bd de 3f 87 bd 7a 21 e8 bd
       0.069755904 -0.081911884 -0.066039786 -0.1133451

convs.1.lin_l.weight f4 [64, 64]
000000 c7 0f e2 3d 00 1d 0a be dd a6 84 3d 25 ff bc bc
       0.110381655 -0.13487625 0.06477139 -0.023070881
000010 15 ca 95 3d 04 42 13 be 3a 65 03 3d 81 2e 40 3c
       0.07313935 -0.14380652 0.03207896 0.011729837
000020 fb aa 3b 3d d8 d6 45 be b1 26 24 3e 98 e2 a0 3d
       0.045817357 -0.19320238 0.16030385 0.07855719
000030 c4 83 31 3d ab 62 ee 3d 47 2d 78 bc 89 84 c9 bc
       0.043338552 0.11639913 -0.015147514 -0.02459933
000040 89 0f 63 bc da 96 fc 3c c9 0c b2 bc 3a 5a 0e 3c
       -0.013858684 0.03083365 -0.021734612 0.008688504
000050 8d 95 19 bd f4 14 32 bd 42 42 3f bd 98 b1 42 3c
       -0.03749614 -0.043477014 -0.046694048 0.011883162
000060 5d 2e c0 3d 00 5f d2 bc 5a d9 66 bc 38 37 bb 3d
       0.09383843 -0.025680065 -0.014089907 0.091413915
000070 62 ba 11 bd f1 08 b3 bd a3 4e 58 3d 36 b4 01 be
       -0.03557814 -0.0874194 0.05280937 -0.12666401
000080 7a a0 e9 3b af d7 c6 3d 9a 78 01 be 6d 88 b9 bd
       0.007129726 0.09709107 -0.12643662 -0.09059224
000090 98 3d 86 3d 6e 33 a9 3d 5e 66 c4 bd ba 90 8c 3d
       0.06554717 0.082617626 -0.095898375 0.06863542
0000a0 d5 26 52 3e ac 0b db 3d 30 87 0c 3e f5 29 c7 bd
       0.20522626 0.106955856 0.13723445 -0.097247995
0000b0 a3 7f ae bd c7 47 f8 3d f6 a4 c5 3c 12 2b 93 bd
       -0.085204385 0.121230654 0.024126511 -0.071859494
0000c0 59 50 bf bd ec 40 42 be b0 b5 3c be 7d 54 04 3e
       -0.09341497 -0.18970078 -0.18428683 0.12922855
0000d0 fc fe ac 3d 5d d2 24 3d bc 89 f9 ba 24 78 2a be
       0.08447072 0.04023968 -0.001903824 -0.16647393
0000e0 6c 9b d0 bd f1 d7 d9 bc ba 35 e2 3d 87 44 0d bd
       -0.10185894 -0.026592227 0.11045404 -0.03448918
0000f0 70 3b 83 bd 3b 71 c6 3c 1d 15 73 3d 69 2f e7 bd
       -0.06407821 0.024223914 0.059346307 -0.1128834
000100 6c 9c 74 3d c4 02 b2 bd dd 4c e1 bd fa da ef bd
       0.059719488 -0.08691934 -0.11000989 -0.11711688
000110 c5 bc 1d bd fc fd 40 bd 23 26 01 be 57 e2 e1 3c
       -0.038510103 -0.04711722 -0.12612204 0.027573748
000120 8e df f0 bd d6 ee 82 3c ce 14 60 3c 23 5c 5e 3d
       -0.1176139 0.015983026 0.013676835 0.054287087
000130 09 4f a6 3d 5c e3 92 bc 25 a2 1e be 87 2c ef 3d
       0.081205435 -0.017930679 -0.1549154 0.11678415
000140 e5 1a da bd 3e ec df bd 38 b5 1a 3d 91 e4 7a 3d
       -0.10649661 -0.109337315 0.03777048 0.061253134
000150 99 62 c4 bd 20 d6 8a bd 9e 4b cd bd a8 b6 f6 bc
       -0.095891185 -0.06779122 -0.100241885 -0.030116394
000160 04 14 b6 bd 64 15 61 3d d2 f2 51 bd 03 da 06 3d
       -0.088905364 0.05495204 -0.051256962 0.032922756
000170 48 a1 a8 bc d2 ee ac 3d fc 70 e4 bd 21 23 d3 bd
       -0.020584717 0.08443989 -0.111543626 -0.10309435
000180 2a 58 a9 bd a8 02 24 3d 2c ec ce 3d a9 70 c4 3d
       -0.08268769 0.040041596 0.1010364 0.09591801
000190 86 86 d0 bd 69 a4 02 be cc ba 36 bd 8d 0d de 3d
       -0.10181908 -0.1275803 -0.044611737 0.10842428
0001a0 a6 64 0f 3d 26 55 c8 bd 86 d3 3a 3d f5 81 66 bd
       0.035008095 -0.09781866 0.04561188 -0.05627628
0001b0 66 aa 8c 3d 8b 4b f0 bd 49 2b c5 3d 67 43 1b 3e
       0.068684384 -0.11733159 0.096273966 0.1516243
0001c0 bd dd a0 3d 6e 2a f7 bc 35 93 a5 bd b9 f8 06 3d
       0.07854793 -0.0301716 -0.08084718 0.032952044
0001d0 30 52 1b bc 43 10 d1 3d bc b2 d0 bb 71 5e 07 3d
       -0.009480044 0.1020818 -0.006368963 0.03304905
0001e0 11 08 af 3d de 5e e9 3c 6a fc a5 3d 33 bf b0 bc
       0.085464604 0.028487619 0.08104785 -0.021575546
0001f0 ae c8 2b 3e 8e d5 7a 3d 37 32 a7 3d 2e 4c 01 3e
       0.16775772 0.061238818 0.081638746 0.12626716
000200 fb c0 2b bd 70 27 e0 bc 4e f6 ee 3d 60 59 31 bc
       -0.041932087 -0.027362555 0.11668073 -0.010824531
000210 28 22 5b 3d 02 a2 8a bd 41 f1 c9 bc ac 55 90 bc
       0.05349937 -0.06769182 -0.024651172 -0.017618977
000220 d1 01 a6 bd 5e 1f b8 3d 04 87 9c bc ea 51 c2 3c
       -0.08105815 0.08990358 -0.01910735 0.0237207
000230 17 17 07 bd 3d ee e8 bd 14 d4 0d bd 26 a9 d2 bc
       -0.032981005 -0.11373565 -0.03462608 -0.025715422
000240 bb 30 0a 3c 2e 70 99 bd e6 c8 b8 3d 9d b9 ac bd
       0.00843447 -0.074921 0.09022693 -0.084338404
000250 89 e0 31 3c 4d b0 cc bb 02 a8 0c be fe 3d 36 3d
       0.010856756 -0.0062466026 -0.13735965 0.044492714
000260 7f 84 9f bd 10 9f d0 3c 1e 7e 13 3d 19 69 0c bd
       -0.077889435 0.025466472 0.036008947 -0.034279916
000270 99 b5 00 be 92 d3 c2 3c 10 07 aa 3d 22 b8 19 bd
       -0.12569274 0.023782525 0.08302128 -0.03752912
000280 e7 29 87 bc 56 fe 01 3d 98 cb 8f 3d 13 8f 11 bc
       -0.016499473 0.031736694 0.07021254 -0.008884209
000290 56 53 dd 3d 94 2a f3 bd 7e 35 a8 3c e8 3a 6d 3c
       0.10806911 -0.118733555 0.02053332 0.014479376
0002a0 31 92 ad bd d6 a6 5c bd e8 d5 24 bd c5 95 55 3c
       -0.084751494 -0.053870045 -0.04024306 0.013036196
0002b0 db bc e4 bd 6c b4 7b 3d e2 4e 58 bd 61 17 96 bd
       -0.11168834 0.06145136 -0.052809604 -0.07328678
0002c0 9b 08 30 3c 8e b1 24 3d a1 fa 11 3e a2 1c e9 bd
       0.010744239 0.04020839 0.14255764 -0.113824144
0002d0 00 fe 92 3d d9 06 9b 3d 59 56 7e bd 89 3d ac bd
       0.07177353 0.075696655 -0.062094066 -0.084101744
0002e0 12 cf d2 3d fc 0d 01 3c 6c 38 49 3d 02 01 8b bd
       0.10293402 0.007876869 0.049126074 -0.067873016
0002f0 e6 46 0f 3e 1f 8c 62 3c 8b b8 85 bc b1 2f 9e bc
       0.1399189 0.013827353 -0.016323349 -0.01930985
000300 78 73 e0 bc c6 8f 86 3d fb 8c f6 bd 0a cb b3 bd
       -0.02739881 0.06570391 -0.12038609 -0.08778961
000310 7f ff ee bd c3 fd cd bd ba 9f e6 3c 0a bc 0c bc
       -0.11669826 -0.10058167 0.028152335 -0.008589754
000320 38 bd 04 3d b8 7c 15 3e 30 6f 3a bd 61 79 e8 bd
       0.032407016 0.14598358 -0.045516193 -0.11351276
000330 01 49 15 3d e4 5c de bc 7e e4 86 bd 20 ef 9d bd
       0.036446575 -0.027143903 -0.0658655 -0.07711625
000340 ac fc 81 3d 70 f5 b6 3d 14 38 0b be 8f bf d8 bd
       0.063470215 0.08933532 -0.13595611 -0.10583412
000350 0d 21 22 bd e6 f8 cb bb 77 f0 6d 3c b0 68 a3 bd
       -0.0395823 -0.0062247394 0.014522663 -0.07978952
000360 10 64 fa bd 12 5a 3d 3d 38 25 57 3d 32 4b 16 bd
       -0.12226117 0.046228476 0.05252573 -0.036692806
000370 19 a4 88 3d 01 2e ef 3d 6e 9e 44 bd c7 0f 4e 3d
       0.06671924 0.116786964 -0.048002653 0.050308015
000380 ae c9 e9 3d f7 33 b7 bd dc b4 8d 3c cf 83 dc 3c
       0.114154205 -0.089454584 0.017298155 0.02691832
000390 5a 77 07 3c e9 02 4e 3d 72 26 07 bd cc ae e7 3c
       0.008268202 0.050295744 -0.03299565 0.028281592
0003a0 c9 7c 78 bd 3f 19 ad bd 26 ba 81 3d b4 a5 9c 3d
       -0.06066588 -0.08452081 0.06334333 0.07648793
0003b0 a0 8e d9 bd 41 c3 f1 3d ee ec b7 3d 02 f5 45 3d
       -0.10622907 0.1180482 0.089807376 0.04832936
0003c0 65 d5 82 bd 33 f6 f1 3d 13 00 b9 3d e7 6d bd bc
       -0.06388358 0.11814537 0.09033217 -0.023123695
0003d0 20 5f af bd 6d 42 f2 bd 6b 59 93 3b 43 8e d0 3d
       -0.085630655 -0.11829076 0.0044967434 0.10183384
0003e0 db 95 d2 3d 54 91 ca 3d c7 58 e9 bd 6f aa f8 3d
       0.10282489 0.098910004 -0.11393886 0.12141883
0003f0 95 1b 4b 3d 10 de ce bd cc 7f de 3d c2 ed ef 3c
       0.04958685 -0.10100949 0.10864219 0.029288176

convs.1.lin_l.bias f4 [64]
000000 34 bb e6 38 c1 b4 75 bc 2d cf c8 bc b9 17 ed bd
       0.00011002124 -0.014996708 -0.024512852 -0.1157679
000010 b1 bf 88 bd 01 35 b5 bc fc 4f 44 3d c7 c2 ec bc
       -0.06677187 -0.02212 0.04792784 -0.02890147
000020 4b 7d 89 3c f6 b9 86 3d 96 46 e4 bd 6b 78 08 3d
       0.016783377 0.06578438 -0.11146276 0.033317965
000030 7e b4 7c 3d 7f 34 b1 bc a1 29 a9 bd ce 96 a4 bd
       0.06169557 -0.021631477 -0.08259893 -0.08036576
000040 a8 8b d8 bc eb fc 9b 3d bb a9 2d bd 56 c7 6a bd
       -0.02643378 0.076166 -0.042398196 -0.057319008
000050 3d 64 b0 bc a4 f0 92 3d ea 41 0d 3b 34 51 00 3d
       -0.021532172 0.07174805 0.002155418 0.03132744
000060 7a 2d 7c 3d 13 a2 28 bc fa 5c 82 3d 57 54 91 3d
       0.061566807 -0.010292548 0.0636539 0.07096165
000070 7d 4a c5 bc bd 3e 31 bd 64 6b b0 3d 81 0e bd bb
       -0.02408337 -0.043272723 0.08614233 -0.0057695513
000080 03 64 b4 3d 0f 1e 81 bd 73 8d 5e bd 78 de ca 3d
       0.08808138 -0.06304561 -0.054334115 0.09905714
000090 9d 3d 8f 3d 9c 38 b0 3d 6d 37 fb bd 3f 79 b5 ba
       0.06994174 0.086045474 -0.12266431 -0.0013845338
0000a0 af 0c 80 3d 48 65 b1 3d ff ef 26 3d 12 f7 f7 3d
       0.06252419 0.08661896 0.04075622 0.12107672
0000b0 53 39 dd bd 8e 48 cf 3d 02 f6 e9 3d 6d 52 2a 3d
       -0.10801949 0.101212606 0.114238754 0.041582514
0000c0 5e aa d6 3d e4 f1 f4 3d cd 2e af 3c a8 fb d8 3d
       0.10481714 0.119601995 0.021384621 0.105948746
0000d0 49 e2 d3 bc fd 0e 98 bc c8 f9 e2 bd 23 c4 e3 bd
       -0.025864737 -0.018561834 -0.11082798 -0.111213945
0000e0 6e 1f 8b bc d0 79 b9 3d b3 db a0 3d b0 c1 f9 bd
       -0.01698276 0.09056437 0.07854404 -0.12195146
0000f0 8c 38 93 bd 03 cd 1d 3d 68 0d a9 3c db f5 a2 bd
       -0.0718852 0.038525593 0.020636275 -0.079570495

convs.1.lin_r.weight f4 [64, 64]
000000 e4 0c d8 bd ed 77 2f bc e4 84 56 bd 6d d6 b7 3d
       -0.10549334 -0.010709745 -0.052372828 0.08976445
000010 55 66 88 bd 98 32 ff bd 85 c7 68 bd 64 22 c5 bd
       -0.06660143 -0.12460822 -0.0568309 -0.096257
000020 9c f5 87 be ad 65 a4 3b d6 02 1d be 08 d0 2c 3d
       -0.26554573 0.0050170035 -0.15333113 0.04219058
000030 ce 34 31 3d f9 59 49 3c fc 4b d7 3d ea db b1 3d
       0.04326325 0.012289518 0.1051254 0.086845234
000040 40 6e 53 be 07 e8 70 bd 73 6f 07 3e d6 3e 85 3d
       -0.20647526 -0.05881503 0.13226108 0.06506126
000050 e4 2d 9b bb 43 e9 5d be a9 19 01 3e c6 d1 6a bd
       -0.004735695 -0.21671014 0.12607445 -0.05732896
000060 78 f0 18 3d 9a 19 b2 3d 6a fc 44 3d e7 3a 26 bd
       0.037338704 0.08696289 0.048092283 -0.040583517
000070 25 08 af bd 85 6f 22 3d 82 c9 d0 bd 1d 2a 3c 3d
       -0.08546475 0.039657135 -0.101946846 0.0459386
000080 f1 b7 2f 3d 73 2d bc 3c 86 4c 55 3e c9 46 16 3d
       0.04290003 0.02297089 0.20829973 0.0366886
000090 d3 bd 29 be b0 04 9b bc e5 ae c0 3d f0 99 ec 3d
       -0.16576318 -0.018923134 0.094083585 0.11552799
0000a0 1a b8 5e bd 83 ac 1e bd 8f 28 9b bd f4 4f a0 bd
       -0.05437479 -0.03873874 -0.07576095 -0.0782775
0000b0 9d 87 71 bd 21 64 4b be 90 74 d9 3d 95 f4 71 3b
       -0.05896722 -0.19862415 0.10617936 0.0036919464
0000c0 af 8f 01 bd 6a a6 8c 3d 76 48 2a 3e ee 5b ab 3d
       -0.031631168 0.068676785 0.16629204 0.083671436
0000d0 94 7f a5 3d 53 4f 02 be 77 9c cf bd c3 2d 2c 3e
       0.08080974 -0.12725572 -0.10137265 0.16814332
0000e0 0e d9 39 be e5 dd 99 3c 16 98 b4 3d 05 f9 3a be
       -0.18149206 0.018782565 0.088180706 -0.18259056
0000f0 1c ce 5b bd 0a 67 08 3e 08 ca e7 ba 02 5a 12 bd
       -0.053663358 0.13320556 -0.0017684111 -0.03573037
000100 ef 06 c7 3d 65 73 0f be b5 8e 45 3c 80 e5 c8 bc
       0.09718119 -0.14008863 0.01205795 -0.024523497
000110 fb c9 11 bc 07 67 a1 bd c7 77 7d 3a 76 9d c0 3d
       -0.008898254 -0.07880979 0.00096690323 0.09405033
000120 87 4d aa 3d 68 2e c5 bd 2f e8 0b be ae f1 86 bc
       0.083155684 -0.09627992 -0.1366279 -0.016472664
000130 89 a1 e5 3d d7 84 20 3c 4a fa 9f 3d 3f 60 3e be
       0.11212451 0.0097972965 0.07811411 -0.18591402
000140 84 62 3f bd e5 d6 96 3d db 37 ec 3c 85 e4 4a bc
       -0.04672481 0.07365207 0.028835228 -0.012383585
000150 8f c9 bf bd 79 08 5b bd 4e 30 a8 bd 55 b1 c9 3d
       -0.09364616 -0.053474877 -0.082123384 0.098482765
000160 65 71 21 3c f1 a9 9c 3d 5c da ae 3d 74 85 5b bd
       0.0098536955 0.07649601 0.085377425 -0.053594068
000170 a1 07 10 bd 6b 6b bb bd 08 5d 81 3d de 07 c7 3d
       -0.035163525 -0.09151348 0.063165724 0.097182974
000180 50 3e 8f bd 68 02 e1 3d f3 06 ef 3a 3f a3 e0 bd
       -0.06994307 0.10986787 0.0018236324 -0.10968637
000190 42 4d 55 3d c1 ec c2 3c f1 e6 85 bd e9 56 7c bd
       0.052075632 0.023794534 -0.06538189 -0.06160632
0001a0 99 dd 76 3d bb 1a 7e bd 27 55 40 bd 97 8e a6 bd
       0.060269926 -0.06203721 -0.046956208 -0.081326656
0001b0 a4 99 d1 3d 7c e3 26 bd 62 fe 1e be c3 78 b0 bc
       0.10234383 -0.04074429 -0.15526727 -0.021541959
0001c0 77 69 ca 3d d1 91 95 bd 95 75 40 be 62 e2 d0 3d
       0.09883397 -0.07303203 -0.18794854 0.10199429
0001d0 74 fa 81 bd f0 a1 53 bb df d6 87 bd 60 d4 f7 bd
       -0.06346598 -0.0032292567 -0.0663278 -0.12101054
0001e0 be 59 0e 3e af ec ed bd 65 05 73 bd fe 16 ca 3d
       0.13901421 -0.116174094 -0.059331317 0.09867667
0001f0 f8 26 0a be 39 e9 3b 3d 70 dd 18 3d 18 25 96 3c
       -0.13491428 0.045876715 0.037320554 0.018328235
000200 2d 0d d5 3c 12 bb 6c bd ba 84 8b bd d5 83 9a 3d
       0.02600726 -0.05779559 -0.06812425 0.07544676
000210 e4 b6 ff 3d 76 bc a5 bd 1b 96 1c bd 6c 91 1d bd
       0.124860555 -0.08092587 -0.03822909 -0.038468763
000220 19 9e d9 3d 51 d0 7b 3d ba 6f 38 bd db b0 2e bd
       0.10625858 0.061477963 -0.045028426 -0.04264913
000230 7c d0 0c bd 16 77 0e 3e 09 0b a2 bd a6 33 b8 bb
       -0.034378514 0.13912615 -0.07912261 -0.0056213913
000240 ae f9 b1 bd de ca d4 3c c7 65 f4 bb 41 23 35 3d
       -0.08690201 0.02597564 -0.007458422 0.044223074
000250 18 9e a8 3d 92 35 ee 3d a7 a5 e3 bd ee 56 dc bc
       0.08233279 0.116313115 -0.1111558 -0.02689692
000260 cc ea de 3c 34 a9 27 bd 09 fc 3d bd 96 37 ac bb
       0.02721157 -0.04093285 -0.046382938 -0.00525565
000270 23 3b 11 3e 07 dc 1f bd a4 a4 4c 3c ab c6 32 bd
       0.14182715 -0.039028194 0.012490425 -0.043646496
000280 38 52 87 ba ef 36 c4 3d 4f 18 8f bd 1d 26 c7 3d
       -0.0010324186 0.0958079 -0.06987058 0.097240664
000290 26 50 63 3c e2 a6 04 3e 78 d4 be 3d 00 98 d1 3a
       0.013874089 0.12954286 0.09317869 0.0015990734
0002a0 c4 50 c2 bc 86 51 ad 3c 41 cd 69 bc 36 c0 b7 3d
       -0.023720153 0.021157037 -0.014270128 0.08972208
0002b0 7a ed 26 bd fe 56 ef 3d ce 3f b4 3c fc 75 93 bd
       -0.04075382 0.11686514 0.02200308 -0.07200238
0002c0 20 92 4b bc 5d c4 a5 bd 20 0f 5a 3d 4c b9 02 bd
       -0.012424976 -0.08094094 0.05323708 -0.031914994
0002d0 8c a0 c1 3d 1a 88 96 3c 24 67 ab bd 35 bc bb bd
       0.0945445 0.018375445 -0.08369282 -0.09166757
0002e0 e4 1c fb bb 6e b1 d0 bd 0c ca 96 bd 74 88 a4 bd
       -0.007663356 -0.10190092 -0.07362756 -0.08033839
0002f0 f8 09 fb 3d 55 5c ea 3c db 11 b5 bd 68 33 b3 3d
       0.12257761 0.02860848 -0.08841296 0.08750039
000300 c2 1b 4a bd 82 87 d8 bd 3f ed a9 3c f0 f8 1d bc
       -0.04934288 -0.10572721 0.02074301 -0.009641871
000310 86 d0 b9 3d 51 f2 05 bd 1d 3a 99 3d 71 d2 97 bd
       0.09072976 -0.032701794 0.07481787 -0.074131854
000320 01 9f 4e bd d0 1d 2e bd fd 98 0e 3d 75 e9 82 bb
       -0.050444607 -0.0425089 0.03481387 -0.0039951154
000330 a8 b6 0c 3d 0a df 92 3d 58 5a 26 bc d9 9d 1d be
       0.034353882 0.071714476 -0.010153376 -0.15392245
000340 53 17 14 bd 9c 89 06 3d 04 c5 b2 bd a7 be 01 3d
       -0.036155056 0.03284608 -0.08728984 0.03167596
000350 20 e7 34 bd c7 00 8b bb 5d 2c e1 3c 5d 75 f9 bc
       -0.04416573 -0.004242036 0.027486974 -0.030451471
000360 1b c7 78 bc a7 d7 04 3e 6a 8e 7d 3d d5 d4 67 bb
       -0.015184189 0.1297289 0.061903395 -0.003537466
000370 3c 5f 13 bd 4f 8c ab 3d 2c fe 78 bd 6f d5 24 3d
       -0.035979494 0.08376371 -0.060789272 0.04024261
000380 59 95 06 3d 21 aa 21 3d 55 83 4e 3d 0f 34 3d 3d
       0.032857273 0.03946889 0.050418217 0.046192225
000390 79 b0 43 bd fe 71 34 3d 20 21 03 be 10 10 5e 3c
       -0.04777572 0.044054024 -0.12805605 0.013553634
0003a0 1e 8b d3 bd 74 f2 95 3d 41 be de bc 8b 96 1e 3c
       -0.10329269 0.07321635 -0.02719033 0.009679447
0003b0 55 a9 1d 3c 41 2d da bd 87 b6 dc 3d 8a 3e 50 bd
       0.009622891 -0.10653163 0.10777002 -0.050840892
0003c0 00 99 80 bc fb 98 53 bd da 25 7b bd 16 54 eb 3d
       -0.015697956 -0.051659565 -0.061315395 0.114906475
0003d0 e8 17 35 3d cf 4c 0e 3c 72 b6 fb bc f1 44 3a 3d
       0.044212252 0.008685305 -0.030726645 0.045475904
0003e0 b0 46 a6 3d 17 79 ae bd d7 13 8d bb f2 87 a8 3d
       0.08118951 -0.0851919 -0.0043053436 0.082290545
0003f0 27 95 15 be 36 71 9c 3d 44 3b 05 be 9e f7 96 bd
       -0.14607678 0.07638781 -0.1301089 -0.07371448

convs.2.lin_l.weight f4 [64, 64]
000000 7d d0 09 bd 71 ea 8b 3d 9a a7 d7 3d aa 5f ee bd
       -0.033646096 0.068318255 0.10530014 -0.1163934
000010 2c 5d 8f bd 29 50 06 3e 97 83 88 3c ab d5 10 be
       -0.07000193 0.13116516 0.01666431 -0.14144008
000020 e6 ee f3 bb af 89 4c bc 95 ad 79 3d de 7f b5 3d
       -0.0074442504 -0.012483998 0.060956556 0.08862279
000030 ce 52 1f 3d bd b1 ad bd 81 bd 5b 3d b3 91 89 bd
       0.038897328 -0.084811665 0.053647522 -0.06717243
000040 c4 63 2d be ef d6 6b 3d ad 6d ce bd d5 2d 12 be
       -0.16932589 0.057578024 -0.10079513 -0.14275296
000050 3e 5a a1 bd 7f c8 93 bd 2e 3e a9 3d 0e 7f 25 be
       -0.078785405 -0.07215976 0.08263813 -0.16161749
000060 83 c5 c7 3d 6b 0f 0f 3c 48 b0 f4 3c 52 da a1 bd
       0.09754469 0.008731703 0.029869214 -0.079029694
000070 35 b9 1c be 73 e5 89 bd 9b ca 26 3d 1b 8d 44 3d
       -0.15305026 -0.06733217 0.040720563 0.04798613
000080 19 75 95 3d 4d d2 37 bc 39 db 77 3b 53 42 d4 bb
       0.07297725 -0.011219573 0.0037819876 -0.006477633
000090 30 d3 c2 b9 17 3c 95 bd 4c b0 ce 3b 8b 21 d0 3d
       -0.0003715991 -0.07286852 0.0063076373 0.10162648
0000a0 2a 4a f7 bc f5 94 69 bc 64 1f 42 3d 31 96 b4 3c
       -0.030186731 -0.0142567055 0.047393218 0.022044273
0000b0 aa a9 b3 3d aa 5c e5 bd 33 c7 e6 bd 45 52 16 bc
       0.08772595 -0.11199315 -0.11268463 -0.009174888
0000c0 48 01 41 bd f7 88 9b 3d 47 8c 89 bd 90 f8 c6 bd
       -0.047120363 0.07594483 -0.06716209 -0.09715378
0000d0 22 e5 93 bc 8a a2 80 bd 6f 0e 05 3d fa 7b c4 bd
       -0.018053595 -0.06281002 0.032484468 -0.09593959
0000e0 b1 de b0 bd c6 f5 c7 bd 85 f0 58 3b fa 93 08 bd
       -0.08636225 -0.097636744 0.0033102345 -0.033344246
0000f0 e7 d2 df 3c 3f 75 58 bc 64 c0 0e bd 0c 65 9e bd
       0.027322246 -0.013211547 -0.034851447 -0.07734117
000100 0a 6e 45 3d da 59 d9 3d ed 2a c8 3c 9f d3 1c bc
       0.048200645 0.10612841 0.024434531 -0.009571939
000110 55 da 4b bd 8e 5f 0c 3d 6a 83 9b bd 1a 3f d8 3c
       -0.049768765 0.034270816 -0.075934246 0.026397277
000120 e7 00 6b bd 51 6c 98 3d a2 68 57 bd 64 f3 3c 3d
       -0.057373907 0.07442535 -0.05259002 0.046130553
000130 1a 97 32 bd 8c 18 c4 3d 28 c4 b3 3c c4 73 ba bd
       -0.043601133 0.095749944 0.02194412 -0.09104112
000140 35 39 cb bd 05 ff 9e bd ba 57 43 3c aa 71 00 3e
       -0.09923021 -0.07763485 0.011922771 0.1254336
000150 7c a1 e3 3d 2d 93 97 bd 81 d5 04 3d 07 4f 23 3e
       0.11114785 -0.074011184 0.032430176 0.15948115
000160 6c 3b 89 bd 8b 08 cc bc 20 be 99 3c 4e ae a2 bc
       -0.06700787 -0.024906417 0.018767416 -0.019858506
000170 23 47 36 be d0 da 0c be 2d 2e b3 bd 9a 32 c3 bd
       -0.17800574 -0.13755345 -0.08749042 -0.09531136
000180 dc 15 82 3d c0 eb 90 3d aa 06 39 be e4 50 0a 3d
       0.063518256 0.07076216 -0.18068948 0.03376855
000190 04 c9 34 bc 1f ac 5b 3c d9 31 ef 3d 82 9c c1 3d
       -0.011034254 0.013407736 0.116794296 0.094536796
0001a0 65 de 89 bd 97 9e 1f 3d d1 af b6 3d b0 29 f4 3d
       -0.067318715 0.038969602 0.08920253 0.11922014
0001b0 f1 0c aa 3d 29 fe 15 3d 23 49 19 3d 0c d1 00 bd
       0.083032496 0.03661934 0.037423264 -0.031449363
0001c0 93 92 de bd f6 5b 97 bd 46 86 ba 3d 2d 31 39 3e
       -0.108678006 -0.07390587 0.09107642 0.18085165
0001d0 d3 43 72 3e bf f2 bb 3d c5 aa 61 3d b3 e9 0d 3d
       0.23658685 0.091771595 0.0550945 0.0346467
0001e0 90 5f b1 3d d4 c9 a5 3d 93 d3 90 bd e0 4a 91 bd
       0.08660805 0.08095136 -0.070716046 -0.070943594
0001f0 24 78 16 bd ef d6 87 bd a4 f1 c4 3d 28 c0 37 3d
       -0.03673567 -0.06632792 0.09616402 0.04486099
000200 b0 fb 21 b9 fa 9e 83 bd 7f 8a 1c 3c a6 46 88 3d
       -0.00015447917 -0.06426807 0.009554504 0.066541
000210 19 35 bd 3d 1d 8e 08 be f5 68 ca bd ea 61 15 3e
       0.09238643 -0.13335462 -0.098833 0.14588133
000220 97 ec 86 bd 88 11 06 be 34 e5 62 3d 73 4f 2f 3d
       -0.06588095 -0.13092625 0.055394366 0.042800378
000230 44 d3 56 bd 75 90 18 3d d1 78 db bd 3b 60 4b bc
       -0.052447572 0.03724714 -0.10716403 -0.01241308
000240 6b 5b de bd bb 96 a9 3d a2 4e c6 bb 4e f8 84 bd
       -0.1085728 0.08280703 -0.006051854 -0.06492673
000250 fe 17 d0 bc d0 64 92 3b 37 08 ac bd 80 e9 7b be
       -0.025402065 0.004467584 -0.08400004 -0.24600792
000260 8a fe f0 3d 5a 81 03 bd a0 48 23 3c d2 ec d7 bd
       0.117672995 -0.03210578 0.009966046 -0.10543217
000270 e9 57 a4 3e d9 45 59 bd 1a 9d a4 3d e6 6e 8f bd
       0.3209832 -0.053045128 0.08037777 -0.07003574
000280 3a 75 fb 3c ed c1 d6 bd f8 dc 98 bd 3d 33 1f bd
       0.030695546 -0.10486207 -0.074640214 -0.038867224
000290 74 6f b8 bc d6 07 9b 3c f7 65 bd 3c 0e 9e ff 3c
       -0.022514082 0.018924635 0.02311991 0.031203296
0002a0 14 b4 6b bc da 44 c5 3d cc 08 35 bd 53 d4 16 bd
       -0.014386196 0.09632273 -0.044197842 -0.036823582
0002b0 28 5a c0 3a 3f a1 d2 3d 5e 4c 2f 3d c1 c2 d5 bc
       0.0014675306 0.102846615 0.04279744 -0.026093842
0002c0 6b db be bd e1 db 7d bd dc 76 1c 3e 61 da dd bd
       -0.093191944 -0.06197727 0.15279716 -0.10832668
0002d0 60 02 6c 3c 90 17 f6 3d 8f b4 51 bd 22 0d b6 bd
       0.014404863 0.12016213 -0.051197585 -0.08889224
0002e0 aa 3f 39 bd 84 62 58 3c 40 3d cb 3d 21 3a 9b bd
       -0.04522673 0.013207082 0.09923792 -0.075794466
0002f0 bb 01 e1 3d b8 1b 29 bd e8 fa c3 3c 33 0a 92 bd
       0.10986658 -0.0412862 0.023923352 -0.071308516
000300 0c 02 36 bd 21 0a 6d bd f4 e3 75 bd 53 93 90 3c
       -0.044435546 -0.057870988 -0.060031846 0.017648375
000310 af 77 ed bc 72 da bf 3c ae 29 05 3e 23 5a 61 bc
       -0.028987734 0.023419593 0.13004181 -0.0137544
000320 14 4f 41 3d 88 8e 83 3c fd 93 e8 bd 3a d6 bb 3d
       0.047194555 0.016059175 -0.113563515 0.0917172
000330 fd 33 8a bd ab 46 c9 3d 3c 63 73 bc b0 7d 92 3d
       -0.06748197 0.09827932 -0.014855202 0.07152879
000340 08 f7 90 bd 2c ba 59 3d b8 45 e7 bc 7d 82 6f bd
       -0.070783675 0.053156063 -0.028231487 -0.058474053
000350 67 c9 0b be f2 34 c0 3d 98 bd 9c bd f6 ea 57 3e
       -0.13651048 0.093850985 -0.0765335 0.21085724
000360 2e 09 8e 3d db ab c4 3c 5c d5 d8 3d 25 56 ee 3c
       0.06935345 0.024007728 0.1058757 0.029093811
000370 32 6f a2 bd e4 ff 72 3d b0 24 1e 3d b4 35 96 3c
       -0.07931365 0.059326068 0.038609207 0.018336155
000380 49 42 a9 3c d7 79 82 3d 61 75 1f bd bf 60 eb bd
       0.02066149 0.06370895 -0.0389303 -0.11493062
000390 a9 f6 6b bd 23 7b ac bd d9 cb 04 be fe 9f a5 3d
       -0.05760828 -0.08421924 -0.12968387 0.08087157
0003a0 47 2c 8b bd 58 ea d6 3d 17 e1 cf bc e7 b2 0e bd
       -0.067955546 0.10493916 -0.025375886 -0.034838583
0003b0 93 6a 65 bd 9a 64 05 3d 5f a6 59 3d 4f 4d ae 3d
       -0.05600984 0.032566644 0.05313718 0.08510839
0003c0 d2 1f 10 3d 4e ac 51 ba c7 d6 61 bd 3b 9c 9f bd
       0.035186596 -0.00079983927 -0.05513647 -0.077934705
0003d0 59 42 4c 3c 64 5d 56 3b dc d3 3e bd db 70 c7 bd
       0.01246699 0.0032709474 -0.046588764 -0.09738322
0003e0 f7 36 9c 3d ff 20 df bd 2a 6d 08 3e dd da 9b bd
       0.07627671 -0.108949654 0.13322893 -0.07610104
0003f0 19 6f 0a 3c b7 4d 50 bd 62 a5 d9 3d 93 9e 1d 3d
       0.008449339 -0.050855365 0.106272474 0.038481306

convs.2.lin_l.bias f4 [64]
000000 f1 82 97 3d d8 22 83 bd b6 61 1f 3d f1 dc b7 3d
       0.07398022 -0.0640313 0.038911544 0.08977688
000010 ac 9d 8a bc 27 f3 9b 3d f1 f2 9c bd 33 8d 1d 3d
       -0.016920887 0.07614737 -0.07663525 0.038464736
000020 c4 ab 5d 3d 41 75 80 3d 56 73 a2 3b 58 55 f8 bc
       0.054118887 0.062723644 0.004957597 -0.030314133
000030 b3 88 e3 bc b5 0c ef bd 38 b7 a6 3d 67 6f 89 bd
       -0.027775144 -0.116723455 0.08140415 -0.067107014
000040 59 02 0a be 39 d5 c5 bd 10 95 80 3d 02 27 41 3d
       -0.13477458 -0.096598096 0.062784314 0.04715634
000050 33 8c 9e 3d c9 77 d2 bd 80 ca 85 3c 34 e5 5c bd
       0.07741585 -0.102767535 0.016331911 -0.053929523
000060 da d2 00 3d c9 1e 8c 3d bb ad 33 3d 18 1f 13 38
       0.031451084 0.06841809 0.043866854 3.507649e-05
000070 4c e2 78 bb 4a e0 2d 3d 09 19 ac bd 8a 05 00 3d
       -0.003797668 0.042450227 -0.084032126 0.031255282
000080 63 7e b8 3d 67 7d 58 bd f1 9e b8 3c ee 86 e1 3b
       0.09008481 -0.052853968 0.022536727 0.00688254
000090 22 bf 11 3c 50 ce bb 3d f5 12 63 bd bb 87 06 be
       0.008895667 0.0917021 -0.055438 -0.13137715
0000a0 a6 92 ad bb 0e 48 96 3d 9f d1 ed 3d 51 06 a5 bc
       -0.005297023 0.07337962 0.11612248 -0.020144613
0000b0 92 6b 02 3d 11 05 9d 3d a7 25 c6 3c ce ee 55 bc
       0.03184087 0.07666982 0.024187876 -0.013057424
0000c0 b9 de 30 bd a8 33 0c 3c 33 e5 bf bc 81 f5 a2 3d
       -0.043181155 0.008557238 -0.02342472 0.079569824
0000d0 bc 49 9b 3c e9 97 b4 3d a0 a1 17 be 71 a8 7d 3d
       0.018956058 0.08818037 -0.14807749 0.061928216
0000e0 fa 18 98 3d b7 55 84 3d 5d 29 80 bd d1 65 d5 3c
       0.07426639 0.06461661 -0.062578894 0.026049526
0000f0 43 d6 ca 3c 80 55 b4 bd cb 12 a4 3c d5 59 cd bd
       0.024760371 -0.0880537 0.020028492 -0.100269
